model.tflite (tflite, 6988 bytes, 6 tensors)

sequential/dense/BiasAdd/ReadVariableOp/resource f4 [32]
000000 00 00 00 00 34 d1 9b 3f 64 c4 9b 3f 2a c8 9a 3f
       0.0 1.2173219 1.2169309 1.2092335
000010 b6 a1 99 3f 73 d6 93 3f 00 00 00 00 2a b8 9c 3f
       1.2002475 1.154982 0.0 1.2243702
000020 62 55 8f 3f 00 00 00 00 00 00 00 00 93 a9 9f 3f
       1.1197932 0.0 0.0 1.2473625
000030 ce 94 99 3f 00 00 00 00 00 00 00 00 00 00 00 00
       1.1998537 0.0 0.0 0.0
000040 d8 9f 9b 3f 00 00 00 00 ef 6e 9b 3f 04 16 91 3f
       1.2158155 0.0 1.2143229 1.1334844
000050 07 d0 91 3f 00 00 00 00 00 00 00 00 00 00 00 00
       1.139161 0.0 0.0 0.0
000060 00 00 00 00 ca cb 8d 3f 00 00 00 00 00 00 00 00
       0.0 1.1077816 0.0 0.0
000070 01 e3 9e 3f 00 00 00 00 5b 79 a0 3f 00 00 00 00
       1.2413026 0.0 1.2537035 0.0

sequential/dense_1/BiasAdd/ReadVariableOp/resource f4 [32]
000000 87 f8 54 bf a2 94 46 bf 54 45 9b 3f e7 af 72 bf
       -0.8319172 -0.77570546 1.2130532 -0.94799656
000010 89 8f 53 3f 1b 07 87 3f 2c 34 60 3f 5b d7 90 3f
       0.8264089 1.0549043 0.8757961 1.1315721
000020 8f 08 96 3f 25 3c 56 bf 2a f7 27 3f af 00 5f bf
       1.1721362 -0.83685523 0.6561152 -0.8711042
000030 9e fa 64 bf 4b 0b 45 3f 98 8f 2a bf 74 83 4f bf
       -0.8944491 0.76970357 -0.66625357 -0.81059957
000040 33 29 7d bf 5f 57 4f 3f 16 8d 52 bf 04 a1 94 3f
       -0.9889099 0.8099269 -0.8224653 1.1611638
000050 87 eb 5f 3f 55 c0 55 bf 99 10 7e 3f b1 ba 62 3f
       0.8746876 -0.834966 0.99244076 0.8856612
000060 d3 15 88 3f 35 53 74 bf 19 64 68 3f d0 31 6d 3f
       1.063166 -0.95439464 0.90777737 0.9265413
000070 ba dc 7d 3f a9 40 4b 3f 8a ac 8c 3f 37 69 5f 3f
       0.99164927 0.7939554 1.0990155 0.8726992

sequential/dense_2/BiasAdd/ReadVariableOp/resource f4 [6]
000000 ab 6d f6 3f a4 e2 0a c0 b1 1d 25 3f 3c 56 8b 3d
       1.9252218 -2.170083 0.6449843 0.06803557
000010 8e b0 9e 3c 1c 72 90 be
       0.019371297 -0.2821206

sequential/dense/MatMul f4 [32, 1]
000000 6a 92 0b be 10 37 18 bf 5f 01 18 bf 67 39 17 bf
       -0.13630071 -0.5945902 -0.5937709 -0.59071964
000010 d8 d2 15 bf fe a9 10 bf 24 0c 1f be bd 19 19 bf
       -0.5852485 -0.5650939 -0.15531975 -0.598049
000020 b1 20 de bb d4 a7 c7 bd 5c 31 0d be 1e bd 1b bf
       -0.0067787995 -0.097488075 -0.1378836 -0.60835445
000030 cf d3 15 bf 6b 6e a5 be 70 1e df bd dd 99 61 be
       -0.5852632 -0.32310805 -0.10894477 -0.2203135
000040 96 cb 17 bf 39 da d0 be 3e 0a 18 bf 71 ac 0d bf
       -0.5929502 -0.4079149 -0.5939063 -0.5534125
000050 c8 63 80 bd 3e 81 d6 be a2 09 8e be 00 aa d3 bc
       -0.06269032 -0.4189548 -0.27741724 -0.025837898
000060 68 98 e9 bd 4e b2 0a bf 67 6a c1 be 56 9f 4d be
       -0.11406022 -0.5417832 -0.3777649 -0.20080313
000070 19 fc 1a bf ea 8f 33 be 87 c9 1c bf 30 54 f4 bd
       -0.6054092 -0.17535368 -0.61245006 -0.1193012

sequential/dense_1/MatMul f4 [32, 32]
000000 d4 f2 81 be 5d 04 82 bf 3c d0 b8 bf 1a 0d 93 bf
       -0.25380576 -1.0157582 -1.4438548 -1.1488373
000010 7a a3 a1 bf 73 9c bd bf ce 29 99 be 66 f0 9a bf
       -1.2628014 -1.481337 -0.29914707 -1.2104614
000020 0b d6 a0 bf 94 9a f1 3d 84 aa 87 3d fc 62 8d bf
       -1.2565321 0.117970616 0.0662432 -1.1045833
000030 05 33 ba bf 08 28 88 be 4e 62 2d 3e c0 9e 89 3d
       -1.454682 -0.2659304 0.16932032 0.06719732
000040 0d e6 b8 bf b8 7a 64 be 2a 0f b3 bf a6 c5 bd bf
       -1.4445206 -0.22312438 -1.3989003 -1.4825943
000050 7f e9 a3 bf d6 1b 65 3e 50 de 3f 3d 02 73 0c 3e
       -1.2805632 0.223739 0.046842873 0.13715747
000060 80 aa 73 be 5e 17 8e bf 88 db f2 3d d2 b8 27 3e
       -0.2379551 -1.1100881 0.118582785 0.16379097
000070 ef 42 a9 bf a3 e5 87 be e0 08 90 bf ba a8 10 be
       -1.3223552 -0.26542386 -1.1252708 -0.14126864
000080 78 2f 28 be d8 0b 86 bf b6 9a ae bf 49 b9 b3 bf
       -0.16424358 -1.0472364 -1.3640964 -1.404092
000090 20 a4 9f bf 2c c3 96 bf 0c 8c 7c be 4e ad b6 bf
       -1.2471962 -1.1778312 -0.24662799 -1.4271638
0000a0 86 e6 89 bf 36 6b 5d 3e 11 fe 86 3e f9 12 91 bf
       -1.0773475 0.21622929 0.26365712 -1.1333915
0000b0 12 79 9f bf f2 22 2b 3e 40 c9 fa 3b 81 cd 80 3e
       -1.2458823 0.1671255 0.0076533854 0.25156787
0000c0 89 70 69 bf 54 1e d5 3d 9d b3 95 bf 98 23 7f bf
       -0.9118734 0.10406175 -1.1695439 -0.99663687
0000d0 75 ca 44 bf ae 44 23 be 08 54 dd 3d 48 28 81 3d
       -0.76871425 -0.15944168 0.10807043 0.06306511
0000e0 d4 fa f1 3d fd 2a 77 bf 88 52 f8 3d 42 ba be bd
       0.1181542 -0.9654997 0.121251166 -0.093128696
0000f0 45 2a 9e bf 20 7a 2e bc 17 fb b8 bf 96 62 d3 bd
       -1.235665 -0.010649234 -1.4451627 -0.10321538
000100 4c 60 2d 3e 12 ad a5 3f 96 5d aa 3f 4a 90 ac 3f
       0.16931266 1.2943442 1.330981 1.3481534
000110 09 a8 b5 3f 33 bd b2 3f 96 c0 cb bd 20 33 82 3f
       1.4191905 1.3963989 -0.09948842 1.0171852
000120 d3 21 9d 3f 20 b7 d9 3d 30 79 0f 3d c0 28 c2 3f
       1.2275947 0.106306314 0.035027683 1.5168686
000130 35 e5 8c 3f d8 94 26 bd a8 11 a3 bd 38 df 26 be
       1.1007448 -0.040669292 -0.07962352 -0.16296089
000140 ba 5b 67 3f c6 5b 30 be 55 95 7c 3f 60 68 ac 3f
       0.9037434 -0.17222509 0.9866536 1.3469353
000150 e8 5a 91 3f 60 a4 e4 3c 9a 10 7b be 3b 83 83 3e
       1.1355867 0.027910411 -0.24518052 0.25686058
000160 d4 60 cf 3d 90 6e 86 3f 7e e4 ad bd 98 c5 9c 3d
       0.101258904 1.0502491 -0.08490847 0.076548755
000170 8d 69 bf 3f 67 5a 74 be 2a 31 7d 3f b0 b6 46 3d
       1.4954087 -0.23862611 0.98903143 0.048514068
000180 20 ed c6 bd 81 c0 8e bf 62 8b 96 bf 4a bd 7c bf
       -0.09713197 -1.1152498 -1.1761286 -0.9872633
000190 bc 88 6d bf 57 8b 8f bf 60 b0 37 bd 05 ec 9e bf
       -0.92786765 -1.1214398 -0.04484594 -1.2415777
0001a0 9f 61 a6 bf f9 91 90 be c2 fd 20 3e 45 05 a1 bf
       -1.2998542 -0.28236368 0.15721801 -1.2579733
0001b0 4f 0c 83 bf 7b 91 83 3e 4c c0 94 be 56 c9 5b 3e
       -1.0238131 0.2569693 -0.2905296 0.21463522
0001c0 e9 8b a9 bf d2 7b b5 bd b5 8c 92 bf b7 8d af bf
       -1.3245822 -0.088615075 -1.144919 -1.3715123
0001d0 21 f6 a0 bf 6c 20 7a be 52 95 64 3e 4c b5 00 3e
       -1.2575113 -0.2442643 0.22322586 0.1256916
0001e0 03 e4 12 be 1d a7 a7 bf bf f1 2e be 0a 42 92 be
       -0.14344792 -1.3097874 -0.17084406 -0.2856601
0001f0 e4 79 87 bf f6 1d 95 bd c1 97 b3 bf fb 0b 2f be
       -1.0584073 -0.07281105 -1.4030687 -0.17094414
000200 0e 9b 47 3e ad 46 c8 3f d3 60 c1 3f 38 48 b5 3f
       0.19492742 1.5646569 1.5107673 1.4162664
000210 a8 64 a3 3f 89 9f a4 3f 7f c1 98 3e 31 e7 af 3f
       1.2765093 1.2861186 0.29835126 1.3742429
000220 e8 34 73 3f 78 22 0f bd 00 73 f4 3b 67 7c b5 3f
       0.95002604 -0.03494498 0.007459998 1.417859
000230 cc e8 b1 3f ea 6b 96 be e0 51 77 bd 40 a9 b9 bd
       1.3899169 -0.29379207 -0.060380816 -0.09065485
000240 0e 78 bd 3f d0 a9 79 be a4 53 aa 3f f4 8f 8e 3f
       1.4802263 -0.24381185 1.3306775 1.1137681
000250 26 16 88 3f e0 fb 3e 3c 64 e9 0a 3e 88 c0 27 be
       1.0631759 0.011656731 0.13565594 -0.16382039
000260 96 3d ad bd 7f c2 c4 3f ca 98 e3 bd 5d fa 2b be
       -0.08459012 1.5371855 -0.111131266 -0.16794725
000270 f4 54 b7 3f de eb 3d be 73 f9 9b 3f f0 aa 88 3d
       1.4322801 -0.18547007 1.2185501 0.06673229
000280 37 64 8c be c0 3f 89 3f f8 c7 b1 3f df bc 89 3f
       -0.27420208 1.072258 1.3889151 1.0760764
000290 91 1b af 3f c5 59 67 3f 10 81 50 3d 00 8e 7f 3f
       1.3680288 0.9037135 0.050904334 0.9982605
0002a0 9c 9c ac 3f 2b a7 99 3e b6 ce 21 be a5 1c 76 3f
       1.3485293 0.30010352 -0.1580151 0.9613746
0002b0 37 80 b8 3f e8 a0 07 3d 86 b1 49 be f3 a3 98 3e
       1.4414128 0.033112437 -0.19696626 0.29812583
0002c0 a9 30 b4 3f 6f f8 94 be 65 da 97 3f 9b 0b bd 3f
       1.407735 -0.2909579 1.1863524 1.4769167
0002d0 92 70 7d 3f fa 78 f9 bd 28 2d 88 be e0 84 10 3d
       0.98999894 -0.121812776 -0.2659695 0.03528297
0002e0 06 7a d8 bd 5a 3f 8a 3f 93 af 85 be 7c 3b ff 3d
       -0.10570149 1.0800583 -0.26110515 0.124625176
0002f0 90 e3 a8 3f f1 a3 86 3e 5d 2f ab 3f 3f 63 37 be
       1.3194447 0.26296952 1.3373829 -0.17908953
000300 9c 4a bd 3d 67 fb 9c 3f ba 16 ae 3f c6 41 7e 3f
       0.09242746 1.2264222 1.3600686 0.9931911
000310 b6 e5 98 3f b2 c8 8f 3f fc 97 cf 3d b5 17 9a 3f
       1.1945102 1.1233122 0.101364106 1.2038485
000320 a4 6e 8a 3f c0 ea 90 bc 42 3b 9f bd d7 c2 a6 3f
       1.0815015 -0.017690063 -0.077749744 1.302821
000330 33 94 6f 3f ff ed 85 be 82 8c 54 3e 70 ca cc 3c
       0.9358551 -0.2615814 0.20756724 0.024998873
000340 45 d2 95 3f 55 7b 85 3e 56 1a 8b 3f 09 84 74 3f
       1.1704794 0.26070657 1.0867412 0.9551397
000350 aa ad 8a 3f d8 fc d8 3d 06 3b b1 bd c5 fd 96 3e
       1.0834248 0.10595101 -0.08653836 0.29490486
000360 20 c6 dd bc 66 23 86 3f 6f d1 35 be 35 05 98 be
       -0.027072012 1.0479553 -0.17755674 -0.29691473
000370 d3 f4 a7 3f ed be 8c 3e c9 52 85 3f 60 2c d4 3c
       1.312159 0.27489415 1.0415889 0.025900066
000380 5a 88 51 3e a1 40 94 3f 7a cb 7e 3f 5b 5c 83 3f
       0.2046217 1.1582223 0.9952923 1.026256
000390 40 11 68 3f 1f 3a 65 3f b5 03 8b 3e 76 d3 ba 3f
       0.9065132 0.8954181 0.27151266 1.4595783
0003a0 b2 21 8a 3f 14 44 8d 3d 81 bd 91 3e ab 8b b2 3f
       1.0791533 0.068977505 0.28464893 1.3948873
0003b0 90 62 9a 3f f8 fb 42 3e 9b 8a 10 be 7a 64 50 3e
       1.2061329 0.19041431 -0.14115374 0.20350829
0003c0 f7 ee bb 3f 0c aa 74 be 29 d2 be 3f 3c 4a 90 3f
       1.4682301 -0.23892993 1.4907886 1.1272655
0003d0 3e 12 b9 3f 96 7c 35 3e 20 1f 46 3d 20 f6 6e bc
       1.4458692 0.17723307 0.048369527 -0.014585048
0003e0 92 d4 59 3e 8d d7 b9 3f d0 ef cb bc 50 49 fc bd
       0.21272495 1.4518906 -0.024894625 -0.12318671
0003f0 08 72 a6 3f e2 f2 7d 3e 32 31 84 3f c0 eb dd 3b
       1.300355 0.24799684 1.0327513 0.0067724884

sequential/dense_2/MatMul f4 [6, 32]
000000 17 c8 98 bf 03 15 be bf 70 13 db 3f 4a 10 bd bf
       -1.1936063 -1.4850162 1.7115307 -1.4770596
000010 cd 89 9e 3f 65 15 db 3f 0f 3f ce 3f 2f cf dc 3f
       1.2385803 1.7115904 1.6112994 1.7250727
000020 09 e1 db 3f 1e bf b1 bf e0 0f 7e 3f 3b 27 b5 bf
       1.717805 -1.3886449 0.99242973 -1.4152597
000030 6c b2 ca bf 26 b9 aa 3f 77 b6 8e bf 48 4f a6 bf
       -1.58357 1.3337753 -1.1149434 -1.2992945
000040 e3 7c a5 bf e1 4d b1 3f c9 32 9e bf de 22 c9 3f
       -1.2928737 1.3851892 -1.2359248 1.5713766
000050 76 7d c6 3f bb 9c 97 bf ac e9 da 3f 61 95 93 3f
       1.5507038 -1.1844705 1.7102561 1.1529962
000060 8e ca b5 3f 4a cc bd bf 66 6e c3 3f 18 45 d7 3f
       1.420244 -1.4827969 1.5268066 1.6817961
000070 1c cf dc 3f f6 9f dd 3f ee d5 e1 3f 03 f2 d3 3f
       1.7250705 1.7314441 1.7643411 1.6558231
000080 b9 2d 72 bd a4 48 45 bf 9a af f0 3e 96 2b da be
       -0.059125636 -0.77063966 0.47008973 -0.42611378
000090 39 95 a1 3e 18 aa 1c 3f 6b 3b 03 3f c5 5b dd 3e
       0.3155916 0.6119704 0.5126254 0.43234077
0000a0 48 2c 81 3e f2 0f 33 bf 77 bb 28 3f bc 5d 08 bf
       0.25229096 -0.69946206 0.6591105 -0.5326803
0000b0 de 54 51 bf 00 25 4a 3f 74 4f 57 bf d9 d6 57 bf
       -0.8177012 0.7896271 -0.8410561 -0.84312207
0000c0 9c d6 79 bd 99 fb 5c 3f 29 0d 21 bf ba bd 42 3e
       -0.060995683 0.8632141 -0.62910706 0.19017687
0000d0 8b eb dd 3e cd 45 06 bf 4a 4c b4 3e 47 b8 76 3e
       0.43343768 -0.5245026 0.35214454 0.24093734
0000e0 41 85 84 3d 5e 98 d4 be bb 05 f4 3e 77 92 1d 3f
       0.06470729 -0.41522497 0.47660622 0.6155161
0000f0 9c 06 21 3f 72 3a 43 3f 56 c3 15 3f 55 80 13 3f
       0.6290071 0.76261055 0.58501184 0.57617694
000100 64 7b 92 bd 1b a3 be bd af 27 de 3e 21 5b 3a be
       -0.07152441 -0.09308454 0.4338965 -0.18198825
000110 db fd 23 be 8a 91 3f 3e 96 a0 83 3e 1f 50 ec 3e
       -0.16014807 0.18707862 0.25708455 0.46154878
000120 67 24 97 3d ac a7 ec bd 44 8c 10 3e a5 dd 13 bc
       0.0737999 -0.11555418 0.14116007 -0.009025012
000130 64 e1 6b 3d 93 89 2a 3e b0 a7 9d be da c7 2b be
       0.057587996 0.16654043 -0.30791998 -0.16775456
000140 6a dd 13 bc 15 1a 04 3e 39 07 a5 be c5 11 96 3e
       -0.009024957 0.12900575 -0.32232073 0.29310432
000150 57 e7 38 3e cc de d8 bd 11 94 1f bd a1 8e ca 3e
       0.18056999 -0.1058937 -0.038959567 0.39561942
000160 b8 b9 a2 3e 3c ec c6 be 04 14 aa 3b 82 46 7d bd
       0.31782317 -0.38852108 0.0051903743 -0.06183482
000170 29 17 ed 3e 2e 27 d6 3e a6 71 96 3e 2c 6d fb 3e
       0.46306732 0.41826767 0.29383582 0.4910673
000180 3d 9e 37 bf e9 bd 3b bf fd c7 c0 3e d8 bf 9e be
       -0.7172583 -0.73336655 0.3765258 -0.3100574
000190 df 57 3e 3f 55 d3 22 3e 63 84 08 3f 94 9c 35 3e
       0.7435283 0.1590093 0.53327006 0.17735511
0001a0 8b 3b 49 3f e1 47 81 be e0 33 5c 3f d3 70 42 bf
       0.7860648 -0.25250152 0.86016655 -0.75953406
0001b0 2c ff 40 bf 7c e2 26 3f 9a 9f 39 be 95 42 07 bf
       -0.7538936 0.6518934 -0.1812729 -0.5283597
0001c0 d4 5d 59 bf 45 e6 d2 3e d8 c0 39 be 3c 09 5b 3f
       -0.84908795 0.41191307 -0.1813997 0.85560966
0001d0 be 19 46 3f 47 06 2f bf 06 86 27 3f 99 05 58 3e
       0.7738303 -0.68368953 0.6543888 0.21095885
0001e0 c5 63 51 3f 5e ce 13 bf 9e 8a 14 3f bb ed 66 3f
       0.8179286 -0.57736766 0.58024013 0.902065
0001f0 77 62 c2 3e aa 17 44 3f f1 34 1e 3e 59 9b 41 3e
       0.37965748 0.7659861 0.15449883 0.18906917
000200 cd 8f 0c bf 71 f1 e3 be 88 9c f0 bc 5b a5 7e be
       -0.5490692 -0.44520143 -0.029371515 -0.24867766
000210 2b 8d 53 bc aa 2f b9 3e a7 e2 5e bd 95 1e d1 bd
       -0.012912075 0.36169177 -0.05441537 -0.10210911
000220 08 bf 0b 3e ac a0 f3 3d df e6 57 be 71 b9 dd be
       0.13647091 0.1189588 -0.21084164 -0.43305543
000230 d6 b8 3d be 5c c7 0d 3f 33 86 73 3d 59 0b eb be
       -0.1852754 0.55382323 0.059454154 -0.45907095
000240 ea 6a c1 be 41 34 07 bc 48 a4 bf be a1 06 e3 3d
       -0.3777688 -0.008252204 -0.37430024 0.11085249
000250 46 70 cd bd 4c f1 fd be 38 89 03 3f cd 8a 78 3e
       -0.1003118 -0.49598157 0.51381254 0.24271698
000260 30 9a 02 3d f3 d7 a7 bd 2f ea 8f 3e f1 ee e6 3d
       0.031885326 -0.08195486 0.28108355 0.11276043
000270 2b f5 21 3d c4 8d c2 3e f0 b0 a9 bc 95 4d 9b 3d
       0.03954045 0.37998784 -0.020714253 0.07583157
000280 38 e1 d8 bf e8 32 bd bf 5d e4 86 3f 95 a9 be bf
       -1.6943731 -1.478116 1.0538441 -1.4895502
000290 ec fd d6 3f 89 f1 9e 3f 43 21 cd 3f a6 6f a3 3f
       1.6796241 1.2417461 1.6025776 1.2768447
0002a0 cb b0 91 3f 79 5a cb bf a8 ee d3 3f 7b 52 b2 bf
       1.1382078 -1.5886985 1.6557207 -1.3931421
0002b0 4f 63 9c bf 22 2f bb 3f be 02 dd bf cd 02 b3 bf
       -1.2217807 1.4623759 -1.7266462 -1.398523
0002c0 b8 08 bd bf ed 63 bd 3f c2 d0 ca bf d6 cc 84 3f
       -1.4768286 1.479612 -1.5844958 1.0375011
0002d0 cf f0 c7 3f 7c 48 b5 bf 79 09 b5 3f 55 79 dc 3f
       1.5620364 -1.4162745 1.4143516 1.7224528
0002e0 72 f5 b3 3f 34 7c b6 bf 5f d8 b6 3f fa 18 a5 3f
       1.4059279 -1.4256654 1.4284781 1.2898247
0002f0 81 cd a9 3f f7 44 c2 3f 2d 32 95 3f 90 47 cd 3f
       1.326584 1.5177296 1.1655937 1.6037464
